ir_version: 13
producer_name: "AMD Quark Example Generator"
graph {
  node {
    input: "input"
    input: "input_scale"
    output: "input_quantized"
    name: "quantize_input"
    op_type: "QuantizeLinear"
  }
  node {
    input: "input_quantized"
    input: "input_scale"
    output: "input_dequantized"
    name: "dequantize_input"
    op_type: "DequantizeLinear"
  }
  node {
    input: "conv_weight"
    input: "weight_scale"
    output: "weight_quantized"
    name: "quantize_weight"
    op_type: "QuantizeLinear"
    attribute {
      name: "axis"
      i: 0
      type: INT
    }
  }
  node {
    input: "weight_quantized"
    input: "weight_scale"
    output: "weight_dequantized"
    name: "dequantize_weight"
    op_type: "DequantizeLinear"
    attribute {
      name: "axis"
      i: 0
      type: INT
    }
  }
  node {
    input: "input_dequantized"
    input: "weight_dequantized"
    output: "output"
    name: "conv"
    op_type: "Conv"
    attribute {
      name: "kernel_shape"
      ints: 3
      ints: 3
      type: INTS
    }
    attribute {
      name: "pads"
      ints: 0
      ints: 0
      ints: 0
      ints: 0
      type: INTS
    }
    attribute {
      name: "strides"
      ints: 1
      ints: 1
      type: INTS
    }
  }
  name: "amd_quark_fp8_example"
  initializer {
    data_type: 1
    float_data: 0.10000000149011612
    name: "input_scale"
  }
  initializer {
    dims: 2
    dims: 3
    dims: 3
    dims: 3
    data_type: 1
    name: "conv_weight"
    raw_data: "…"
  }
  initializer {
    dims: 2
    data_type: 1
    name: "weight_scale"
    raw_data: "\n\327\243<\217\302\365<"
  }
  input {
    name: "input"
    type {
      tensor_type {
        elem_type: 1
        shape {
          dim {
            dim_value: 1
          }
          dim {
            dim_value: 3
          }
          dim {
            dim_value: 8
          }
          dim {
            dim_value: 8
          }
        }
      }
    }
  }
  output {
    name: "output"
    type {
      tensor_type {
        elem_type: 1
        shape {
          dim {
            dim_value: 1
          }
          dim {
            dim_value: 2
          }
          dim {
            dim_value: 6
          }
          dim {
            dim_value: 6
          }
        }
      }
    }
  }
  value_info {
    name: "input_quantized"
    type {
      tensor_type {
        elem_type: 19
        shape {
          dim {
            dim_value: 1
          }
          dim {
            dim_value: 3
          }
          dim {
            dim_value: 8
          }
          dim {
            dim_value: 8
          }
        }
      }
    }
  }
  value_info {
    name: "weight_quantized"
    type {
      tensor_type {
        elem_type: 19
        shape {
          dim {
            dim_value: 2
          }
          dim {
            dim_value: 3
          }
          dim {
            dim_value: 3
          }
          dim {
            dim_value: 3
          }
        }
      }
    }
  }
}
opset_import {
  domain: ""
  version: 19
}
